models/matbert_bsc_cls.pth (torch, 4840 bytes, 1 tensors)

linear.weight f4 [1, 768]
000000 52 36 64 3d 54 9d 82 3c 21 e7 5c bc 79 04 ac bc
       0.055715866 0.01594416 -0.01348284 -0.020998226
000010 9b 63 12 be 6f 84 79 3d 66 cc 41 3d 28 8e d0 bc
       -0.14295809 0.060917314 0.04731407 -0.02545841
000020 a5 ce e9 bb 62 46 d8 3d cd 33 d1 3d c6 48 8b bd
       -0.0071352297 0.105602995 0.10214958 -0.0680099
000030 fd 8e 30 3e fb a3 c2 bd 8e 2d d9 3d e7 1a 9b bc
       0.17242046 -0.09503933 0.10604392 -0.018933726
000040 63 c0 d0 3c 72 82 3b bc 22 c3 5f 3d 2a f1 0b 3d
       0.025482362 -0.011444675 0.054629453 0.03416554
000050 c9 f7 89 3b ef cf 92 bb 93 ea 8d 3d 40 9c 31 3c
       0.0042104465 -0.004480354 0.06929507 0.010840476
000060 d3 55 20 3c ac dc 36 bd 4c fd df bc a7 8a 23 be
       0.009786087 -0.044644043 -0.027342461 -0.1597086
000070 76 17 9e 3d 9f 6f 6d bc b4 c1 3f bd 49 a3 35 3c
       0.077193186 -0.014491945 -0.04681559 0.0110862935
000080 44 0d b0 bd 78 0d 81 3d 90 ef 2e bc 73 ce ce bd
       -0.0859628 0.06301397 -0.010677233 -0.10097971
000090 e2 0a ef bc dd d0 89 3c 39 1f 5f 3d 90 41 12 bd
       -0.029179994 0.016823227 0.054473136 -0.035707057
0000a0 35 0d db 3d ce 59 83 3d 94 57 02 bb 90 9a cc 3b
       0.106958784 0.06413613 -0.0019888626 0.006244011
0000b0 5c d1 1c 3a 7a bc be 3d 10 4e a0 bd bc 9f dc bc
       0.0005982125 0.09313293 -0.07827389 -0.026931636
0000c0 64 5c 71 bd 61 7b bb 3d a3 3e 46 3d b4 12 6e 3d
       -0.058926 0.09154392 0.04839958 0.058123305
0000d0 c6 1d 75 3c ea 48 d3 3c a8 1e 14 bd aa 47 63 bd
       0.014960712 0.025791604 -0.03616205 -0.055488266
0000e0 47 ae 57 bd f2 d5 3e bd cf 2e 55 3e 0a 4c 34 3e
       -0.05265644 -0.046590753 0.20818637 0.17607132
0000f0 7a 3e 40 bd 87 79 a3 bd c9 8e b5 3d a4 84 40 bd
       -0.046934582 -0.07982164 0.08865125 -0.047001496
000100 4a f3 f9 bd 1b e9 c7 3c d4 e0 fc bc e7 8b bb bd
       -0.12204607 0.024403146 -0.030868925 -0.09157544
000110 a2 c8 9a bd f8 16 55 3d 17 3b f2 3d 96 86 92 bd
       -0.07557799 0.052023858 0.11827677 -0.071545765
000120 b9 91 a5 3c 00 e1 c1 3c 69 d1 8a bd 9a 74 95 bd
       0.020211088 0.023666859 -0.06778223 -0.072976306
000130 9d e0 64 bc 0e 5b 13 3d 21 56 07 3c f4 39 07 3c
       -0.013969568 0.03597551 0.008260281 0.008253563
000140 0b 31 b4 3d 34 30 b8 bd 5d 5c 54 3d ca 5c 28 bd
       0.08798417 -0.08993569 0.051845897 -0.041104116
000150 24 16 23 bd 7d ad d4 3c 06 3b 54 bd 60 09 dc 3c
       -0.039816037 0.025961632 -0.0518141 0.02685994
000160 0a 86 ce 3c 6f ca 13 bd 21 45 6c bc b6 37 43 3b
       0.0252104 -0.036081728 -0.0144207785 0.0029787845
000170 c1 3e 33 3d 19 31 39 3d 2d c2 50 3d b3 f1 03 be
       0.04376102 0.04521284 0.05096643 -0.1288517
000180 a9 e8 20 3d 9a 64 47 3d 09 42 4f bd bb a8 13 bc
       0.039284382 0.048679926 -0.050600085 -0.009012396
000190 7e a3 b6 3d 24 db 2c be c6 90 b6 3a 16 7c 20 bc
       0.089179024 -0.1688047 0.0013928644 -0.009795209
0001a0 bf 2a 3d 3d d4 34 0d ba 1e 95 18 bc fb 40 d0 bc
       0.046183344 -0.0005386595 -0.009312896 -0.02542161
0001b0 65 34 8c 3c 7d 15 4d 3c c8 9c 3f bd d9 63 53 3b
       0.017114827 0.01251733 -0.046780378 0.0032255559
0001c0 11 5b 92 bc e8 2f 5e 3d a3 89 66 bd 09 8d 37 bd
       -0.01786569 0.054244906 -0.056283604 -0.044812236
0001d0 a4 cb 04 bb 8e 67 17 3d 29 4e f9 3c 3d e4 b8 3d
       -0.002026298 0.03696399 0.030432777 0.09027908
0001e0 b4 14 57 3b c2 69 45 bc 61 61 f7 3c ac 23 94 bc
       0.0032818737 -0.01204914 0.030197801 -0.018083416
0001f0 04 4d 12 bd b4 d4 a2 bd e3 b7 d3 bd 97 b2 04 3d
       -0.03571798 -0.07950726 -0.10337808 0.03239688
000200 ea 93 35 bc 8e 51 7b bc 1d ba a9 bd 69 6f c2 ba
       -0.011082629 -0.015339268 -0.082874514 -0.0014834228
000210 04 6a 10 bd 26 05 1b bd 2a 9f e3 3d 98 45 9c 3d
       -0.035257354 -0.037846707 0.111143425 0.076304615
000220 2a bd 65 3d da bb a1 3d 3e 8f 0e 3c 67 95 14 bb
       0.056088604 0.07897158 0.008701144 -0.0022672059
000230 c7 2c ee 3d 3d a8 2e bd bb 94 9c 3c fe bd ad bd
       0.11629634 -0.042640913 0.019113889 -0.08483504
000240 21 f4 d4 3d d7 9f 83 3d e7 ae 1f be f9 0a 14 3d
       0.103981264 0.064269714 -0.15594064 0.036143277
000250 88 f6 7b 3d 38 f1 1d bd ed bc a7 3d 00 bf 96 3c
       0.061514407 -0.038560122 0.081903316 0.018401623
000260 6a 9c 7b bd a4 de 12 bd a4 19 8d 3d 0e d5 b1 3d
       -0.061428465 -0.035856858 0.06889656 0.08683215
000270 79 c8 5c 3c 90 62 21 bd 97 ee ba bd 0c 60 45 3d
       0.013475531 -0.039400637 -0.09127539 0.0481873
000280 60 a6 43 3d 8d 7b 9a 3d 03 e7 f5 3d 9e 3c 00 be
       0.04776609 0.07543097 0.120069526 -0.12523124
000290 8e 43 c8 3d 30 c1 9a 3d 41 b3 94 3c a2 f6 5c 3c
       0.0977851 0.07556379 0.018151881 0.013486536
0002a0 42 26 8d 3c 3f e3 bf bc 12 9e ab 3d 80 8a a5 3c
       0.017230157 -0.02342379 0.08379759 0.020207644
0002b0 bd e2 ad bd b6 61 8f 3d 27 6b 02 bd 7e f7 65 3d
       -0.084905125 0.07001059 -0.03184047 0.05614423
0002c0 be 7e 38 3d 4f 7d d0 bd 48 6a db bc f8 da f2 bd
       0.045042746 -0.10180151 -0.026784077 -0.11858171
0002d0 5e eb 6a 3b 6d cf b3 3d b6 3f 84 3d 38 e6 de 3c
       0.0035845856 0.08779798 0.064574644 0.027209386
0002e0 55 d3 5f 3d bc 59 aa bd 1c 18 96 3b 85 ab af 3c
       0.0546449 -0.08317897 0.004580511 0.021444092
0002f0 a4 20 84 bd d0 2e a3 bc 37 23 c6 3d 3c 16 9c 3c
       -0.06451538 -0.019919783 0.096746854 0.01905357
000300 69 5c 12 bd 27 57 48 bd 9c 3d 71 3c c1 b3 37 3d
       -0.03573266 -0.04891124 0.0147241615 0.04484916
000310 5c a6 e4 bb 87 91 e9 bd bd 85 20 3d 00 c3 2e bd
       -0.0069778394 -0.1140471 0.039190043 -0.042666435
000320 05 9a 70 bc 62 e8 61 3d 00 b2 05 be 85 df d4 3d
       -0.014685159 0.05515326 -0.13056183 0.103941955
000330 63 79 27 3d bf b7 ab bd 36 05 fd 3c 9d 6c 41 3d
       0.040887248 -0.08384656 0.030886274 0.047222722
000340 e7 6f 64 3d e1 7a 8c 3c 9c 11 01 bd f9 c4 1b bd
       0.05577078 0.017148437 -0.031510934 -0.038029645
000350 1f ca af bd 01 fa 31 bd b2 36 6b 3d d3 a3 a0 bd
       -0.085834734 -0.043451313 0.05742521 -0.07843747
000360 7c ef 34 3d 6d 98 b4 3c d2 f8 31 3b 54 eb 18 3d
       0.044173703 0.022045339 0.0027156365 0.0373338
000370 58 94 60 3d 8a f5 7e 3d 69 1d 34 3d f4 47 2b bd
       0.05482897 0.062245883 0.04397336 -0.041816667
000380 74 20 9d 3c ac ad 4c 3d 79 f4 07 3d 0e 26 16 3d
       0.019180514 0.049970314 0.03319213 0.036657386
000390 b6 c0 5f 3a 61 f3 3d bb 64 14 d1 bc 2c e4 81 3c
       0.0008535491 -0.0028984176 -0.025522418 0.015855871
0003a0 68 d0 b8 bc d0 18 68 3d b8 ce 9c bd 3b 41 26 bd
       -0.022560313 0.056664288 -0.07656616 -0.040589552
0003b0 6b f6 4d 3d d9 0c db bc a2 b2 a7 bd 46 f4 de 3d
       0.05028383 -0.026739525 -0.081883684 0.10886435
0003c0 76 06 53 3d f2 a9 79 bd 95 24 1b 3d 53 c3 ba 3d
       0.051519834 -0.060953088 0.037876684 0.091192864
0003d0 86 f6 d9 bd 21 c5 0c 3e 58 b6 a3 bd 46 bc cd bc
       -0.10642724 0.13747074 -0.07993764 -0.02511419
0003e0 68 b4 da bd db 0d ae 3c c9 41 95 3d 42 d5 bb bc
       -0.10678941 0.021246841 0.07287938 -0.022928838
0003f0 83 32 4d bc 93 c1 99 3c 78 d6 dc 3d e4 9c 57 3c
       -0.01252425 0.018769061 0.10783094 0.013159964
