models/matbert_mean_old.pth (torch, 7918 bytes, 2 tensors)

linear.weight f4 [2, 768]
0	0xbcf84cff	-0.030310152
1	0xbbf9ce57	-0.0076234746
2	0x3d1acf53	0.037795376
3	0x3cdff671	0.027339192
4	0x3d52e96c	0.05149214
5	0xbc3b9075	-0.011448015
6	0xbd5bf6fd	-0.053702343
7	0x3d4f929a	0.05067692
8	0xbc4fe01a	-0.012687707
9	0xbc9f743a	-0.0194646
10	0xbdad940b	-0.084755026
11	0x3b86d1f4	0.004114384
12	0xbd7a94c1	-0.06117702
13	0xbc5e5695	-0.013570447
14	0xbc89c17a	-0.01681589
15	0x3d56a5f0	0.052404344
16	0x3d012fcd	0.031539727
17	0xbb9afaf9	-0.0047296253
18	0xba526421	-0.00080257846
19	0xbbc303fa	-0.005951402
20	0xbc7b950c	-0.01535536
21	0x3c20740c	0.009793293
22	0xbc304948	-0.010759659
23	0xbc46adb8	-0.012126379
24	0x3d38b4dd	0.04509436
25	0x3c6159f3	0.013754356
26	0x3ccba2d7	0.024857922
27	0x3da959f0	0.08269107
28	0xbd201daf	-0.03909081
29	0xb9757e65	-0.00023412106
30	0xbc507318	-0.012722753
31	0xbd0f1312	-0.034930296
32	0x3c6f5a3b	0.014608915
33	0xbcc5d236	-0.024148088
34	0x3be56630	0.007000707
35	0x3c8c2320	0.017106593
36	0xbb9aebb1	-0.0047278036
37	0xbc0f85be	-0.008759914
38	0xbd19ca9e	-0.037546746
39	0xbceae68c	-0.028674386
40	0xbd4a1d60	-0.04934442
41	0xbbc8c2f4	-0.006126756
42	0x3d4d079e	0.050056092
43	0xbc852bbf	-0.016256211
44	0xbc562497	-0.013070247
45	0xbd72d12e	-0.05928152
46	0x3b5984b3	0.0033190667
47	0x3cd11c8c	0.025526308
48	0xbc8ac021	-0.016937317
49	0xbd644f02	-0.05573941
50	0xbd702c13	-0.058635782
51	0xbca9d21c	-0.02073007
52	0xbd162ee0	-0.036665797
53	0xba691e76	-0.00088927837
54	0x3c03c6e6	0.008043027
55	0x3c8a9083	0.016914612
56	0x3d13bdf8	0.03606984
57	0xbcc05ec6	-0.023482691
58	0xbda202d9	-0.079106994
59	0xbdb00a7e	-0.08595751
60	0x3b18456b	0.0023234736
61	0x3c20bb78	0.009810321
62	0xbd98da93	-0.07463565
63	0x3cfaab33	0.030599212
64	0x3d062a1c	0.032755002
65	0xbd1719b6	-0.036889754
66	0x3ce3797f	0.027767895
67	0x3da16e6e	0.07882391
68	0x3d1d0f37	0.038344588
69	0xbd04936f	-0.032367166
70	0xbc6eff31	-0.01458721
71	0x3b1fcca8	0.002438346
72	0xbc012d22	-0.007884296
73	0xbceb22c0	-0.028703094
74	0x3d1d9e0f	0.038480815
75	0x3cbf37a2	0.023341957
76	0x3cf5fe73	0.030028557
77	0xbc50fff0	-0.012756333
78	0x3d039985	0.03212883
79	0xbc73addc	-0.014872994
80	0xbd402ee8	-0.046919733
81	0xbc03141d	-0.008000401
82	0xbd417658	-0.047232002
83	0x3be47b14	0.00697268
84	0x3c7704af	0.0150768
85	0x3cc44e29	0.02396305
86	0x3d1136b4	0.03545256
87	0xbcfa2d7f	-0.030539272
88	0xbb003782	-0.0019564335
89	0x3d38ed22	0.045148022
90	0xbd068dd9	-0.03285012
91	0x3d3a3553	0.04546101
92	0x3c25e96c	0.010126453
93	0xbcf3e765	-0.029773423
94	0xbc35041e	-0.011048345
95	0x3ac48bbd	0.0014995259
96	0xbd017c07	-0.031612422
97	0xbd687d62	-0.0567602
98	0xbb4f777c	-0.0031656912
99	0xbc52e392	-0.01287164
100	0xbd5dca77	-0.054148164
101	0x3ccf7015	0.025322
102	0x3cc8fabc	0.024533622
103	0x3a620f93	0.00086235366
104	0xbc8e90a2	-0.01740295
105	0xbd045daa	-0.032315888
106	0x3c43bb31	0.011946485
107	0x3d3e46c1	0.046454195
108	0xbcf70c66	-0.03015728
109	0xbc0f93ff	-0.008763312
110	0x3c52eee5	0.01287434
111	0x3b9b04f0	0.004730813
112	0xbbe21779	-0.006899771
113	0x3cb6c21c	0.022309355
114	0x3bc94f4e	0.006143487
115	0xbce7829e	-0.028260525
116	0xbcf93f50	-0.030425698
117	0xbcb94f44	-0.022620805
118	0x3cf4f29f	0.029900847
119	0xbd819519	-0.06327266
120	0x3c8edfa5	0.017440626
121	0x3ada56fc	0.0016658003
122	0x3b200bad	0.0024421022
123	0xbc817455	-0.015802542
124	0x3c79429e	0.015213637
125	0x3c0527de	0.008127181
126	0x3c537484	0.012906197
127	0xbd72ddaa	-0.059293427
128	0x3bf09c87	0.0073428783
129	0x3cd0d583	0.025492435
130	0x3cc62276	0.024186354
131	0xbc9bf55c	-0.019037895
132	0x3c863fc3	0.016387826
133	0x3d0177fa	0.03160856
134	0xbc8e55e4	-0.01737494
135	0xbd7b9edf	-0.06143081
136	0x3c112f24	0.008861337
137	0xbd0c8959	-0.034310672
138	0xbd488a6a	-0.048960127
139	0x3cc2860f	0.023745565
140	0xbd918ec6	-0.0710731
141	0x3c93de79	0.01805042
142	0xbbe0aaa9	-0.006856282
143	0x3cef4569	0.029207902
144	0xbd47bd74	-0.04876466
145	0xbd108824	-0.035286084
146	0x3cb53410	0.022119552
147	0xbc181d27	-0.009284294
148	0x3d02a9d9	0.03190026
149	0x3d309ac2	0.04311634
150	0xbcd8aaf3	-0.026448702
151	0xbcf19015	-0.029487649
152	0xbb969f03	-0.0045965924
153	0x3caf6b57	0.021413488
154	0xbcd69c6e	-0.026197638
155	0xbc08e5f8	-0.00835561
156	0xbaf16f47	-0.0018420004
157	0x3bbe6f60	0.005811617
158	0x3c81abd6	0.015829008
159	0xbb3ee792	-0.0029129726
160	0xbca4d104	-0.020119198
161	0xbd383656	-0.044973694
162	0xbb317f1a	-0.0027083815
163	0xbbeeb26d	-0.0072844536
164	0xbd61ddc5	-0.055143137
165	0xbc5d0d79	-0.013491982
166	0xbd1d9150	-0.03846866
167	0x3d5d9481	0.054096702
168	0xbcfceaad	-0.03087362
169	0x3c2de288	0.010613091
170	0xbd5630fd	-0.052292813
171	0xbd3e08c5	-0.046395082
172	0x3d0f0a42	0.034921892
173	0x3c5b887f	0.013399242
174	0x3ca40e8b	0.020026466
175	0xbcc02493	-0.02345494
176	0x3b54d624	0.003247627
177	0x3cb28b03	0.021794802
178	0xbc62f7b9	-0.013853007
179	0x3d100f44	0.03517081
180	0x3c6df3ab	0.014523427
181	0x3b879a10	0.0041382387
182	0xbcf03da9	-0.029326277
183	0xbd002012	-0.031280585
184	0xbcfe99cf	-0.031079201
185	0xbbf8251e	-0.007572784
186	0xbbbf3fe7	-0.005836475
187	0x3cfb649e	0.030687626
188	0x3bd4076f	0.0064706127
189	0x3c677445	0.014126842
190	0xbd8bd75c	-0.06828186
191	0xbd4698cc	-0.048485562
192	0xbcf7a54a	-0.030230183
193	0x3c81c938	0.015843019
194	0x3c3d4882	0.011552932
195	0x3bcf1a98	0.006320309
196	0xbbccf64e	-0.0062549477
197	0x3d9c99f6	0.07646553
198	0xbd950bef	-0.07277667
199	0xbc24fda2	-0.010070236
200	0xba396579	-0.00070723105
201	0xbcd0365a	-0.025416542
202	0x3c32c141	0.010910333
203	0xbc3175ab	-0.010831277
204	0xbd05bb6b	-0.03264944
205	0x3cff43a3	0.031160181
206	0xbd1d5fd2	-0.03842146
207	0x3d3d7cdf	0.046261664
208	0x3a037314	0.00050144014
209	0x3cab6367	0.020921422
210	0x3d648f55	0.055800755
211	0x3d092c95	0.033489782
212	0x3d82d004	0.06387332
213	0x3ca90cd8	0.020636007
214	0xbd07e320	-0.033175588
215	0x3c0b63c3	0.008507672
216	0xbd395d2c	-0.04525487
217	0x3cde9b1c	0.027173571
218	0x39b2dd0c	0.00034115498
219	0xbc95e459	-0.018297361
220	0xbd5ef17e	-0.054429524
221	0x3cf29a6c	0.02961465
222	0xbd32ea63	-0.04368056
223	0x3c21e339	0.009880834
224	0x3ca7b320	0.020471156
225	0xbc97ac10	-0.018514663
226	0xbd1f4c3e	-0.03889107
227	0xbd78d24c	-0.06074743
228	0xbcf982a2	-0.030457798
229	0xbcbe6d0f	-0.023245363
230	0xbcb32ee1	-0.02187294
231	0xbcb14c49	-0.02164282
232	0x3cf91336	0.030404668
233	0xbd21b4de	-0.03947913
234	0x3c89c20f	0.016816167
235	0x3ce430f7	0.02785538
236	0x3a8ab2d4	0.0010581859
237	0x3d74e9d3	0.059793305
238	0x3cfe5059	0.031044172
239	0xbd4c972b	-0.049948853
240	0x3c5e279c	0.013559248
241	0x3c6d4d6e	0.014483793
242	0xbd8cb1af	-0.06869828
243	0x3917f641	0.00014492219
244	0x3cb958c3	0.022625333
245	0xbd66f8e3	-0.0563897
246	0x3d86e3ba	0.06586404
247	0xbc85169d	-0.016246134
248	0x3d0d6dbe	0.034528486
249	0xbabd86d6	-0.001445974
250	0xbd39171b	-0.04518805
251	0x3d392998	0.045205683
252	0xbcd9f014	-0.026603736
253	0xbcfd9946	-0.030956876
254	0xbdb5a580	-0.08869457
255	0x3c42e330	0.011894986

linear.bias f4 [2]
0	0x3c6df6b7	0.014524153
1	0xbd46a15d	-0.04849373
